AI_LP/test_run/chatdata.pth (torch, 4754 bytes, 6 tensors)

l1.weight f4 [8, 37]
0	0xbe4e9561	-0.20174171
1	0xbebe1bef	-0.37130687
2	0x3f12b327	0.57304615
3	0x3e09e354	0.13465625
4	0x3f222068	0.633307
5	0x3eae853f	0.34086034
6	0x3f496afd	0.78678876
7	0x3e56eaec	0.20988053
8	0x3ed29ee4	0.4113685
9	0xbe84a466	-0.25906676
10	0x3e99b9da	0.30024606
11	0x3f60227f	0.87552637
12	0x3f4939ee	0.7860402
13	0x3f10adc9	0.56515175
14	0xbc49a793	-0.012308019
15	0x3eba821e	0.36427397
16	0x3e7a4da3	0.24443679
17	0x3eb25b93	0.3483549
18	0x3e498a86	0.19681749
19	0xbe94a326	-0.29030722
20	0x3f099513	0.53743094
21	0x3aa996d0	0.0012938622
22	0x3f32ba5f	0.6981563
23	0x3d5fc833	0.054634284
24	0x3e985c98	0.29758143
25	0x3ec9912b	0.39368567
26	0x3efd36c4	0.49455845
27	0xbed3683a	-0.41290456
28	0x3f077f24	0.52928376
29	0x3e89ff23	0.26952466
30	0xbec8f7f7	-0.39251682
31	0xbdc96e1a	-0.09835453
32	0x3daa3c83	0.08312323
33	0x3f1591d5	0.5842565
34	0x3eaf93e9	0.34292534
35	0x3f3723ff	0.715393
36	0x3dfabb7a	0.122427896
37	0x3f2173a1	0.6306706
38	0x3ee3dbe7	0.4450371
39	0x3e4292f8	0.19001377
40	0xbc46ec7d	-0.012141344
41	0x3e900851	0.28131345
42	0xbe5b096c	-0.21390313
43	0xbe52c513	-0.2058299
44	0xbe758225	-0.23975427
45	0x3f184395	0.5947812
46	0x3ed1cff6	0.40978974
47	0xbe14823d	-0.14502807
48	0xbe327510	-0.17427468
49	0x3ec1d50e	0.3785786
50	0xbec63a95	-0.3871657
51	0x3f12ac8e	0.5729455
52	0xbec62f09	-0.3870776
53	0xbec63b4a	-0.3871711
54	0xbee5ea30	-0.44905233
55	0xbe1ba01e	-0.15197799
56	0x3eb09b91	0.34493688
57	0x3e8cc316	0.2749259
58	0x3e2c4f03	0.16827016
59	0xbe819281	-0.25307086
60	0x3e836800	0.25665283
61	0x3edc8d75	0.43076673
62	0x3e9d5b62	0.30733782
63	0xbe6353ea	-0.2219998
64	0x3e74a3c5	0.23890598
65	0x3eeed2c6	0.46645182
66	0x3f1b146c	0.60578036
67	0x3f72e8ff	0.94886774
68	0x3f1bb729	0.60826355
69	0xbe646740	-0.22305012
70	0x3d921ac3	0.07134011
71	0x3ee48818	0.4463508
72	0x3f0f50d7	0.55982727
73	0x3ec0f762	0.37688738
74	0xbdf0954e	-0.117472276
75	0xbe521d1a	-0.20518914
76	0x3f31d8fc	0.69471717
77	0x3e1c28d1	0.15249945
78	0x3f1ea3a7	0.61968464
79	0x3ec18dfd	0.3780364
80	0xbe72baec	-0.23704118
81	0x3efde8c0	0.49591637
82	0x3ef58176	0.47950333
83	0xbeafb71a	-0.34319383
84	0x3ecdb886	0.40179843
85	0xbeb8cda2	-0.36094385
86	0x3f268087	0.6503987
87	0x3ebacee8	0.36485982
88	0xbe0819af	-0.13291048
89	0x3f11a81c	0.5689714
90	0x3e9fec5b	0.31235012
91	0x3eba52bc	0.36391246
92	0x3ec79d8c	0.38987386
93	0xbdb3f702	-0.087873474
94	0x3ecdfaa5	0.4023029
95	0x3cc1f702	0.023677353
96	0xbd9f2c81	-0.0777216
97	0x3d528a56	0.05140146
98	0x3e2d34bf	0.16914652
99	0x3f07d92d	0.5306576
100	0xbe205a0a	-0.15659347
101	0xbe61a6c0	-0.22036266
102	0x3ec88e36	0.39170998
103	0x3ebdad6f	0.37046382
104	0xbf0c8e9f	-0.5490512
105	0xbe877116	-0.26453465
106	0x3e30c605	0.17263038
107	0x3f23f5c5	0.6404689
108	0x3ee06a1b	0.43830952
109	0x3f1fda77	0.62442726
110	0x3e0324b4	0.1280697
111	0x3eb5c964	0.3550521
112	0x3e4a7bed	0.19773836
113	0xbde9a6d8	-0.11408776
114	0x3e931e0f	0.2873387
115	0xbd93ace0	-0.07210708
116	0x3f1f7c96	0.6229948
117	0xbf0690a2	-0.5256444
118	0x3f0953a5	0.53643256
119	0xbea85024	-0.32873642
120	0x3d506dd5	0.050885994
121	0x3f073818	0.5281997
122	0xbf068fe1	-0.5256329
123	0xbe2b9571	-0.16756226
124	0x3f51edb7	0.8200335
125	0x3e55b569	0.20869984
126	0x3f4eb82b	0.8074977
127	0x3f0758e0	0.5286999
128	0x3efec74b	0.49761423
129	0x3e87c8a0	0.26520252
130	0xbcae18b8	-0.021252021
131	0xbd72f708	-0.05931762
132	0xbd5051a9	-0.050859127
133	0xbe95bbfa	-0.29244977
134	0x3ea96d6c	0.33091295
135	0xbe2c549d	-0.16829152
136	0xbe8b76d8	-0.27239108
137	0xbed0424b	-0.40675578
138	0xbe05ce80	-0.13067055
139	0x3a432380	0.00074439496
140	0xbd0496db	-0.03237043
141	0x3ed49924	0.41523087
142	0x3e8e0260	0.27736187
143	0x3e7b4f23	0.24541907
144	0xbe2f7e6f	-0.17138074
145	0x3d08f442	0.033436067
146	0xbe69cc90	-0.2283194
147	0x3e4b47a1	0.19851543
148	0x3ed0019e	0.40626234
149	0xbe1dc5e6	-0.15407524
150	0x3dcf8cd0	0.1013428
151	0x3e93512c	0.28772867
152	0xbd08065f	-0.0332092
153	0x3e253029	0.16131653
154	0x3f6b4eb3	0.9191696
155	0x3e9bd33c	0.30434597
156	0xbec95b55	-0.39327493
157	0xbe1aa636	-0.15102467
158	0x3eb83a86	0.3598215
159	0x3f3cdc51	0.73773676
160	0xbd8d4d8d	-0.06899557
161	0x3e0e8ddc	0.13921303
162	0x3e9df6bd	0.3085231
163	0x3e70b802	0.23507693
164	0x3e208116	0.15674242
165	0x3e9b6d49	0.30356815
166	0x3e82c595	0.25541368
167	0xbe8a822c	-0.27052438
168	0xbd60f9f7	-0.054925885
169	0xbee998a3	-0.45624265
170	0x3f055e0b	0.52096623
171	0x3e9d6405	0.3074037
172	0xbe89ec0f	-0.2693791
173	0xbe69856b	-0.22804801
174	0x3f2087e3	0.62707347
175	0xbde4d927	-0.11174231
176	0xbe32ec62	-0.17472985
177	0xbebeeb66	-0.3728897
178	0x3efd7275	0.49501386
179	0x3e19c46a	0.15016332
180	0x3ecc875b	0.39947018
181	0x3d564087	0.05230763
182	0xbe91cabf	-0.28474995
183	0x3e270ac4	0.163127
184	0x3ebcfea2	0.3691302
185	0xbe3b1f90	-0.18273759
186	0x3e88b74f	0.26702353
187	0xbe5cc920	-0.21561098
188	0x3ece7011	0.40319875
189	0xbe982d2a	-0.29721957
190	0x3f0eb9f5	0.557525
191	0xbf0d8fb3	-0.5529739
192	0x3f031081	0.5119706
193	0x3eaa484f	0.33258292
194	0x3eed99c9	0.4640639
195	0x3f2b5221	0.66922194
196	0xbf0d9076	-0.55298555
197	0xbce9bb68	-0.028531745
198	0x3f262c9d	0.64911824
199	0xbdff873a	-0.12476964
200	0x3f08d36b	0.534476
201	0x3f340c9a	0.7033173
202	0x3f2a635b	0.66557854
203	0x3f1a6aae	0.6031903
204	0x3ef482e8	0.47756124
205	0x3e7ac830	0.24490428
206	0x3f0bb1e8	0.5456834
207	0xbe8677ec	-0.26263368
208	0xbe108134	-0.14111787
209	0x3eb0750d	0.34464303
210	0x3dd85f8f	0.10565101
211	0xbeb3cf80	-0.35119247
212	0x3e87a42f	0.2649245
213	0x3e2dd8e7	0.16977273
214	0x3e957f66	0.2919876
215	0xbecdf14e	-0.40223163
216	0xbdd3cc06	-0.10341649
217	0x3f1aed8a	0.60518706
218	0xbd09bee1	-0.033629302
219	0x3e8e2eae	0.2776999
220	0x3e6843fa	0.22682181
221	0x3d798fe5	0.060928244
222	0x3ed2d561	0.4117842
223	0x3f11f74b	0.57017964
224	0xbe88f771	-0.26751283
225	0xbdee3e04	-0.11632922
226	0xbd25a5e3	-0.040441405
227	0xbe5c8740	-0.21535969
228	0xbe9e64f2	-0.3093639
229	0xbe02b31d	-0.12763639
230	0x3eab56aa	0.33464557
231	0x3ed0e86c	0.40802324
232	0xbe4a0197	-0.19727169
233	0xbe9593b3	-0.29214248
234	0x3c983392	0.018579278
235	0xbea66850	-0.3250146
236	0x3e851549	0.25992802
237	0xbea65ad0	-0.3249116
238	0xbea65aa6	-0.32491034
239	0xbebeb528	-0.37247586
240	0xbdf1027c	-0.11768052
241	0x3f1f30a3	0.6218359
242	0x3d0b995d	0.034081805
243	0x3e431ce1	0.19053985
244	0xbe8f9e69	-0.28050545
245	0x3e886074	0.26636088
246	0x3eab4e1f	0.3345804
247	0x3e947766	0.28997344
248	0xbecbe19d	-0.39820567
249	0x3eac82ee	0.3369364
250	0x3e6d3f3a	0.2316865
251	0x3f1ed434	0.62042546
252	0x3f5386fd	0.8262785
253	0x3eb1a33a	0.34694844
254	0xbdba2956	-0.090899155
255	0xbddd2d20	-0.107996225

l1.bias f4 [8]
0	0x3f455666	0.7708496
1	0x3ec6393b	0.38715538
2	0x3f0c8e00	0.54904175
3	0x3f069397	0.52568954
4	0x3f67aea2	0.90500844
5	0x3f0d9114	0.55299497
6	0x3ea659fd	0.3249053
7	0x3ec38cac	0.38193262

l2.weight f4 [8, 8]
0	0x3f860b4f	1.0472201
1	0x3e0f7e49	0.14013018
2	0x3e4f5f95	0.20251305
3	0x3ea76aa5	0.3269855
4	0x3f91c3c3	1.1387867
5	0xbeaff716	-0.343682
6	0xbe4450c2	-0.19171432
7	0xbe86c99f	-0.263257
8	0x3f834381	1.0254976
9	0x3eda7e0b	0.42674288
10	0x3f2fee49	0.6872297
11	0xbf99de23	-1.2020916
12	0x3e5eec23	0.21769767
13	0xbe84095f	-0.257884
14	0x3e8bdacf	0.27315375
15	0xbe1296ef	-0.14315389
16	0x3f20600a	0.62646544
17	0xbf5ae50d	-0.85505754
18	0x3f7e475c	0.99327636
19	0x3f6157b9	0.8802448
20	0x3f2f8351	0.6855975
21	0x3f15b131	0.584735
22	0xbf5f678c	-0.87267375
23	0x3eb54c48	0.3540976
24	0x3ee0300d	0.4378666
25	0x3f36c8ea	0.7140032
26	0x3f3b68d2	0.7320682
27	0xbf2f27d7	-0.68420166
28	0xbf25b527	-0.6472954
29	0x3ede604f	0.43432853
30	0x3e7e2206	0.24817666
31	0x3e96d7f8	0.29461646
32	0xbe7e4383	-0.24830441
33	0x3f6e6089	0.9311605
34	0x3e98b3b0	0.2982459
35	0x3f2e067f	0.6797866
36	0xbd49daed	-0.04928105
37	0x3f2aab00	0.66667175
38	0x3f98d690	1.1940479
39	0x3f8f2b14	1.1185021
40	0xbe6a7512	-0.22896221
41	0x3df9e0d9	0.122010894
42	0xbeba36b2	-0.36369854
43	0xbea9e686	-0.33183688
44	0xbe13edc4	-0.14446169
45	0x3e5fbc94	0.2184928
46	0xbe06270c	-0.13100833
47	0x3d83bc0d	0.06432352
48	0x3f082a92	0.5318996
49	0xbdbda7bf	-0.09260511
50	0x3f6924a5	0.9107154
51	0x3e824e12	0.25450188
52	0xbf29058e	-0.660241
53	0x3f8f735c	1.120708
54	0xbd87cab8	-0.066304624
55	0x3f9002bf	1.1250838
56	0xbeae406b	-0.34033522
57	0x3f3525aa	0.70760596
58	0xbf765f86	-0.9623951
59	0x3f6bc2cc	0.9209411
60	0x3e768688	0.24074757
61	0x3c9711b9	0.018441068
62	0x3f5caa80	0.8619766
63	0x3e906fef	0.282104

l2.bias f4 [8]
0	0x3f0f3cae	0.55951965
1	0xbe09501e	-0.13409469
2	0x3ef1b6c0	0.4720974
3	0xbe869677	-0.2628667
4	0x3e48defd	0.19616313
5	0xbe1f9cda	-0.15587178
6	0x3de05080	0.10952854
7	0x3e2b4578	0.16725719

l3.weight f4 [5, 8]
0	0xbfa3ac07	-1.2786874
1	0x3d3e8d59	0.04652152
2	0xbf7a6805	-0.9781497
3	0xbd9b2cc8	-0.07576901
4	0x3ed1daa9	0.40987137
5	0xbe29f345	-0.16596706
6	0x3ee753fe	0.45181268
7	0x3ec84352	0.3911386
8	0x3f5c831b	0.8613755
9	0x3f46c450	0.776433
10	0x3e39104e	0.18072626
11	0xbf885508	-1.065095
12	0xbf702fba	-0.93822825
13	0xbe8fe43d	-0.2810382
14	0xbf57e6bc	-0.8433645
15	0xbf49d698	-0.7884307
16	0xbcfeb25f	-0.031090913
17	0xbf92e186	-1.1475074
18	0x3f288c25	0.65838844
19	0xbf4b821a	-0.79495394
20	0xbcae1c3c	-0.021253698
21	0x3e83668e	0.2566418
22	0x3f0ddd40	0.55415726
23	0xbef7e08a	-0.48413497
24	0xbed54ff8	-0.41662574
25	0x3f3bd301	0.7336884
26	0xbea0b8b5	-0.3139092
27	0x3e375ff9	0.17907704
28	0xbcd7fe85	-0.026366482
29	0xbdb85ad7	-0.09001701
30	0x3e871d57	0.26389572
31	0xbf8a8923	-1.0823101
32	0x3e536b46	0.2064639
33	0xbf660edb	-0.8986642
34	0xbf130bc5	-0.57439834
35	0xbf8af1d0	-1.0855045
36	0x3f1f976e	0.6234044
37	0xbeb08eaa	-0.34483844
38	0xbf85db08	-1.0457468
39	0x3f902799	1.1262084

l3.bias f4 [5]
0	0xbdf2476b	-0.11830028
1	0x3e5db75d	0.21651979
2	0x3d65dbf8	0.05611798
3	0xbe91cad8	-0.2847507
4	0x3e8adcf5	0.27121702
